models/hey_echo.onnx (onnx, 14525 bytes, 7 tensors)

layer1.bias f4 [32]
-0.015209063 -0.01297091 0.0056933323 0.02166975 -0.0044165095 -0.027063727 0.03256505 0.019432625
0.0007550124 0.014600914 0.006134648 0.031653643 -0.026007066 0.01996938 0.009472089 -0.009047303
-0.009975344 0.014309932 0.022923749 -0.0125412345 0.010626765 0.004238053 0.008731653 -0.015994897
-0.02359702 0.003174201 -0.033052996 0.006062179 -0.010894347 -0.017134162 -0.0066313297 0.028906673
00000000: 6f2f 79bc f183 54bc 228f ba3b c284 b13c
00000010: 5eb8 90bb c0b4 ddbc ee62 053d 2b31 9f3c
00000020: 06ec 453a ac38 6f3c 2805 c93b 40a7 013d
00000030: c50c d5bc d396 a33c d230 1b3c 243b 14bc
00000040: a06f 23bc 3474 6a3c 96ca bb3c c079 4dbc
00000050: e21b 2e3c 5edf 8a3b 350f 0f3c bb07 83bc
00000060: 8a4e c1bc 4106 503b 9462 07bd 3ea5 c63b
00000070: 347e 32bc f15c 8cbc a04b d9bb b0cd ec3c

layernorm1.weight f4 [32]
0.951458 1.0347188 1.0458089 0.9669705 0.9627863 0.9812525 1.027106 0.9842558
0.9661914 0.9589355 0.9668776 1.0087758 0.98100954 0.9903501 0.95789576 1.0164714
0.9401192 1.0065435 0.96702856 0.94723046 0.9731136 1.036958 0.99481666 0.9476019
0.96223027 0.99268913 0.9747503 0.96171343 1.0199423 1.0621386 1.0545301 0.99279654
00000000: c092 733f aa71 843f 11dd 853f 618b 773f
00000010: 2a79 763f 5d33 7b3f 3678 833f 30f8 7b3f
00000020: 5258 773f cc7c 753f 4a85 773f 911f 813f
00000030: 7123 7b3f 9687 7d3f a838 753f bc1b 823f
00000040: a7ab 703f 6bd6 803f 2f8f 773f b27d 723f
00000050: f91d 793f 0abb 843f 4eac 7e3f 0a96 723f
00000060: b954 763f e020 7e3f 3c89 793f da32 763f
00000070: 788d 823f 28f4 873f d8fa 863f ea27 7e3f

layernorm1.bias f4 [32]
-0.0056562517 0.008310394 0.026039869 -0.033970274 -0.044842318 -0.0152290035 0.011018272 -0.01249185
0.015552204 -0.039495125 -0.049644552 0.008368802 0.002005562 -0.009355802 -0.04068026 0.0049421904
-0.076553375 0.011009119 -0.04361386 -0.022416323 -0.015390735 0.03843444 0.02994001 -0.031082626
-0.031092197 -0.002680456 -0.028493762 0.008913366 0.01732939 0.020362435 0.013600343 -0.0021318723
00000000: 1458 b9bb 5228 083c 9051 d53c 6a24 0bbd
00000010: 94ac 37bd 1283 79bc fb85 343c 9eaa 4cbc
00000020: acce 7e3c a4c5 21bd 1658 4bbd 4d1d 093c
00000030: bf6f 033b 1449 19bc 58a0 26bd 19f2 a13b
00000040: 04c8 9cbd 985f 343c 72a4 32bd 70a2 b7bc
00000050: 6c29 7cbc 6e6d 1d3d c044 f53c fea0 febc
00000060: 10b5 febc 97aa 2fbb c06b e9bc 5e09 123c
00000070: 5df6 8d3c 1fcf a63c f9d3 5e3c e2b6 0bbb

blocks.0.fcn_layer.bias f4 [32]
-0.13861528 -0.0543992 0.046377286 -0.0077060414 0.16600426 -0.15733595 -0.08295587 0.022940643
0.15799882 -0.030095767 0.13911164 -0.02818669 0.01971649 0.12835136 -0.06306508 0.052900396
0.022652397 0.11915805 -0.050490238 -0.04832845 0.072917506 -0.10394817 0.030270725 -0.12590103
0.14948873 0.13886882 -0.11504848 -0.095595054 0.124891326 0.038724456 -0.14595084 -0.100806415
00000000: 2af1 0dbe b2d1 5ebd 1cf6 3d3d f682 fcbb
00000010: 05fd 293e ad1c 21be c4e4 a9bd 04ee bb3c
00000020: 71ca 213e 668b f6bc 4873 0e3e c6e7 e6bc
00000030: 7a84 a13c 8a6e 033e 4428 81bd 16ae 583d
00000040: 8591 b93c 2309 f43d dace 4ebd 0ef4 45bd
00000050: c655 953d c7e2 d4bd 50fa f73c 33ec 00be
00000060: 9313 193e a133 0e3e 8a9e ebbd 57c7 c3bd
00000070: 06c7 ff3d 899d 1e3d 2374 15be 9873 cebd

blocks.0.layer_norm.weight f4 [32]
1.1668329 1.0293517 0.99872994 1.3391384 1.0678673 1.0435388 1.0691128 1.2693636
1.1111307 1.2681098 0.98385537 1.0295044 1.2667112 0.9856181 1.0761914 1.2798026
1.2525647 1.0813507 1.0367954 0.95848083 1.0647275 1.125641 0.94901973 1.2813861
1.3415105 1.0200444 1.0570908 0.9363904 1.020196 1.0450628 1.0510912 1.0394945
00000000: c85a 953f ccc1 833f c4ac 7f3f e368 ab3f
00000010: e0af 883f ae92 853f b0d8 883f 827a a23f
00000020: 8839 8e3f 6c51 a23f f2dd 7b3f cdc6 833f
00000030: 9823 a23f 7851 7c3f a4c0 893f 92d0 a33f
00000040: 0a54 a03f b369 8a3f b6b5 843f 005f 753f
00000050: fe48 883f 0115 903f f5f2 723f 7604 a43f
00000060: 9eb6 ab3f d190 823f c04e 873f 48b7 6f3f
00000070: c895 823f 9ec4 853f 288a 863f 280e 853f

blocks.0.layer_norm.bias f4 [32]
0.078360766 0.033804573 0.0062970547 0.28285146 0.05812782 0.044148624 0.044699006 0.24772458
0.08365186 0.2505088 -0.012646716 0.04484772 0.24896106 -0.045297824 0.04391481 0.2562968
0.2552542 0.021061808 -0.031726275 -0.035156623 0.012586173 0.08519728 -0.076603875 0.26060015
0.27925858 0.0052081253 0.035639144 -0.066156276 0.014733611 0.039640907 0.050911255 0.030894365
00000000: 9c7b a03d aa76 0a3d 8657 ce3b e8d1 903e
00000010: 7017 6e3d 30d5 343d 4e16 373d 83ab 7d3e
00000020: ab51 ab3d b042 803e 2c34 4fbc 3eb2 373d
00000030: a6ef 7e3e 368a 39bd 04e0 333d 5639 833e
00000040: aeb0 823e d089 ac3c 69f3 01bd 6400 10bd
00000050: 3c36 4e3c e97b ae3d 7ee2 9cbd 626d 853e
00000060: fbfa 8e3e eca8 aa3b 5afa 113d f17c 87bd
00000070: 3e65 713c 815e 223d 5288 503d 2e16 fd3c

last_layer.weight f4 [1, 32]
0.16522607 0.051126014 0.035151407 -0.34334937 0.18683179 0.19066885 0.10871491 -0.41578528
0.25450146 -0.37151894 0.0008859413 0.17777619 -0.38956258 0.037500408 0.16095862 -0.3823529
-0.3509621 0.21401733 0.07788788 -0.07465185 0.19055691 0.13667059 0.03657309 -0.3871374
-0.34922385 0.040112056 0.09073536 -0.0043985625 0.19612247 0.2074877 0.18922162 0.032794215
00000000: 0631 293e 8369 513d ecfa 0f3d 7dcb afbe
00000010: d550 3f3e b23e 433e eca5 de3d cfe1 d4be
00000020: 044e 823e bb37 bebe 843e 683a f60a 363e
00000030: bf74 c7be 079a 193d 56d2 243e c2c3 c3be
00000040: 4eb1 b3be 5c27 5b3e ae83 9f3d 12e3 98bd
00000050: 5a21 433e 60f3 0b3e aacd 153d e036 c6be
00000060: 78cd b2be 8a4c 243d 76d3 b93d d121 90bb
00000070: 54d4 483e a877 543e 50c3 413e 3a53 063d
